onnx_model/fast_and_furious_model.onnx (onnx, 183508 bytes, 18 tensors)

st_path.0.bias f4 [128]
000000 35 5a 3a bf c4 ad 19 bf 4d 9d 1f 3e 30 6c 41 3c
       -0.72793895 -0.6003077 0.15587349 0.011805579
000010 17 76 ab 3e 97 b9 9e bf ed 27 a2 bf 99 40 46 bf
       0.33488533 -1.2400388 -1.2668434 -0.7744232
000020 95 d8 37 3e c3 89 6f 3e af 4a 6a be fc ca 3e c0
       0.17953713 0.23392396 -0.22880052 -2.9811392
000030 19 b5 9c 3e 85 f7 49 bf 8e de cc be 78 ad 63 3e
       0.30606917 -0.7889331 -0.40013546 0.22234142
000040 2a ff 30 be 6e 2c ec 3d f8 32 1e 3e 09 69 a8 be
       -0.17284837 0.11531912 0.1544913 -0.32892635
000050 38 bd 2d 3f e1 e3 8f 3f b2 67 00 3d 27 fd 5c 3e
       0.6786685 1.1241418 0.03134889 0.21580945
000060 75 22 1e 3f 3b 2b 09 3e a8 1a 37 3f bb e5 c3 3d
       0.6177133 0.13395397 0.7152505 0.09565302
000070 b6 2d b7 3d 95 b1 7b bb 8d ea 9c bf 05 96 fa 3e
       0.089442655 -0.0038405408 -1.2259079 0.4894258
000080 69 5c cf bf 38 e2 e8 be 39 21 44 be e3 78 b1 bf
       -1.6200076 -0.4548509 -0.19153298 -1.3865017
000090 d9 85 15 3f fe 77 e5 bd 5d c1 1e bf 27 97 40 bf
       0.5840736 -0.11204527 -0.620138 -0.7523064
0000a0 0f b0 00 3f 65 1c 80 be c7 b5 d0 bd 67 22 2a 3f
       0.50268644 -0.25021663 -0.10190921 0.66458744
0000b0 f7 a7 83 bd 30 ce 08 c0 27 6d 35 bf 47 92 bb 3d
       -0.06428521 -2.1375847 -0.7086968 0.091587596
0000c0 01 09 20 3e 44 2d 7d 3f 42 ff 90 3f fb c2 0d 3e
       0.15628435 0.98897195 1.1327899 0.1384391
0000d0 b8 8f f3 3c 2b a3 05 bc 1e 8d 4f be e9 b9 3a 3f
       0.029731616 -0.008156578 -0.20268676 0.72939926
0000e0 25 b7 d7 3e 4a a1 a7 3c 2e 87 f2 3d ec 72 2d 3e
       0.42131916 0.02046265 0.1184219 0.1693837
0000f0 3c 74 f5 3e 53 15 d2 3c 7d b2 2d 3f 74 bf fa be
       0.47940242 0.025644934 0.67850477 -0.48974192
000100 15 6d f2 be c9 48 51 be 98 ed 26 c0 06 46 0c be
       -0.47348848 -0.20437922 -2.6082516 -0.13698587
000110 16 e9 ec bd 3f ad 39 bd 0c 13 31 3e 05 33 c5 bd
       -0.11567895 -0.045331236 0.17292422 -0.09628872
000120 d4 e9 1c 3f d5 13 84 3e 7b f6 44 3e c3 3e 04 3e
       0.61294293 0.2579638 0.1923465 0.12914567
000130 e5 42 8d bc f6 4f b7 3d 11 30 2a 3f 57 95 b5 3f
       -0.017243812 0.08950798 0.66479594 1.41862
000140 d3 fb 76 be f0 18 ef 3b aa fc 18 be d8 bd c6 3e
       -0.24119501 0.007296674 -0.14940134 0.38816714
000150 7c ee 3c 3f f6 23 00 3e a9 dd fa bf bc 46 b7 3d
       0.738014 0.12513718 -1.9598895 0.089490384
000160 bd 12 94 bc 17 38 70 be e5 b4 21 3f bd 48 33 3e
       -0.018075341 -0.23458897 0.6316665 0.17508216
000170 3b d3 9b 3e 10 db c4 be ae 1a 94 3f c8 fd 0b bf
       0.30434594 -0.3844838 1.1570642 -0.54684114
000180 bb 88 8e 3f af 43 ab be db ec 2f bf d7 3e 6e be
       1.1135477 -0.33450076 -0.6872079 -0.23266159
000190 30 6f 83 3d 49 53 08 3e ed 62 2f 3e 10 42 16 bf
       0.06417692 0.13313021 0.17127581 -0.58694553
0001a0 63 1e f4 3e ab a2 2d be 07 29 0e bc 8b 75 3d 3e
       0.47679433 -0.16956584 -0.008676774 0.1850187
0001b0 44 b8 26 bd 8e 91 11 be 35 3e 45 bf ea 34 c5 3d
       -0.040703073 -0.14215681 -0.77048045 0.09629233
0001c0 1a a6 4b bf a3 79 18 3f a1 dc 17 bf fd 63 25 3e
       -0.79550326 0.595606 -0.5932103 0.16151424
0001d0 04 2d ff bd 17 87 22 bf 23 a2 9b 3e 0f 13 01 3e
       -0.12459758 -0.6348738 0.30397138 0.12604927
0001e0 ba 2a cb 3d 3a ab 93 3e e3 fb 58 3e 5d e2 bb bf
       0.09920259 0.28841573 0.21189837 -1.4678456
0001f0 a8 7d 97 3f f0 8b 4d be af ab 16 be c4 aa 33 bd
       1.1835222 -0.20072913 -0.1471393 -0.043864027

st_path.2.bias f4 [128]
000000 49 69 28 be c5 46 5a 3f f2 2d f6 be 38 48 2b 3f
       -0.16446413 0.85264236 -0.48081928 0.6690707
000010 ec d0 e1 3e 8b 16 f4 3e 9b 82 d4 bf b5 b7 2d be
       0.44104707 0.4767345 -1.6602358 -0.1696461
000020 19 97 15 bd 81 92 64 bf ea 15 89 3f e3 2f 91 bd
       -0.03652105 -0.8928605 1.0709813 -0.07089212
000030 39 74 89 3d 61 04 fa bd 3d ab 5e bf 7e 4b 17 be
       0.06711621 -0.122078665 -0.8698004 -0.14774892
000040 7e 3b 50 be 9d 7c c4 bf b7 46 a4 be 8b a0 d7 be
       -0.20335194 -1.5350529 -0.320852 -0.42114672
000050 66 96 4b c0 98 9b 00 3f b3 c6 06 c0 9f 58 1d bf
       -3.1810546 0.5023742 -2.1058776 -0.6146335
000060 00 a9 20 c0 a6 57 a5 bf 01 d3 44 be dc 51 b6 3f
       -2.510315 -1.2917373 -0.19221117 1.4243731
000070 95 15 3a c0 6b 3e da bd 0e 4d 4f 40 e8 9f f6 3e
       -2.9075673 -0.106564365 3.239078 0.48168874
000080 63 b2 86 bf 63 34 0a bf f6 df d7 bf 4d 61 e6 be
       -1.0523189 -0.53986186 -1.6865222 -0.4499611
000090 7c c1 62 3f bc cc 25 bf 74 62 6d 3d 1b af 00 be
       0.88576484 -0.64765525 0.05795522 -0.12566797
0000a0 a9 b7 c6 bf 77 98 74 3e 01 94 e6 3e 12 1d da 3e
       -1.5524799 0.23886286 0.45034793 0.42600304
0000b0 19 0a 03 40 7f 03 d8 bd 87 08 df bd be cf f1 be
       2.0474913 -0.10547542 -0.10890298 -0.47228807
0000c0 50 48 87 bf df ff 1a be 69 32 53 bf 0c ab 46 bf
       -1.0568943 -0.1513667 -0.82498795 -0.77604747
0000d0 a2 bc 0c c0 73 b2 5b bf 71 01 f7 3c 33 5e c4 3e
       -2.1990132 -0.85819167 0.030152055 0.38353118
0000e0 37 86 a8 3f 51 52 c3 be 23 85 ea be e3 ff b8 bd
       1.3165959 -0.3814874 -0.458047 -0.090331815
0000f0 93 d6 f0 bf f0 f9 20 c0 1e 14 db 3f f3 eb 2f be
       -1.8815483 -2.515255 1.7115514 -0.17179851
000100 fc 80 22 bf 8a 68 46 bf 8e 91 21 3f ff 8c 6f 3f
       -0.63478065 -0.77503264 0.63112724 0.9357452
000110 03 51 0f 3f 5e 6b 1d be 3b 99 6c bf f5 ad 84 3f
       0.5598299 -0.15372989 -0.9242131 1.0365587
000120 de 56 29 be 85 33 f6 3f cb a7 37 c0 6a 31 68 be
       -0.16537043 1.9234473 -2.8696163 -0.226751
000130 d0 69 7f 3d 91 dc b3 3e 64 ce 35 bf 37 0a b8 bf
       0.06235677 0.35129216 -0.7101805 -1.4378117
000140 b9 50 25 be e2 2b 37 c0 59 23 dd 3f d3 9b 8e 3f
       -0.16144074 -2.8620534 1.7276412 1.1141304
000150 3b 4a 86 3d 23 5a 1d 3f f3 29 29 bf 71 bc cc be
       0.06557127 0.6146566 -0.66079634 -0.3998752
000160 a2 b7 87 3f c1 c5 ad bf 37 92 b9 bf 68 03 4e be
       1.0602915 -1.3575975 -1.4497746 -0.20118487
000170 6c 13 12 be c8 6c 55 be 01 ae dd be 93 a8 8d bf
       -0.14265221 -0.20842278 -0.43296817 -1.106707
000180 ee 56 a7 3c d8 5f 1a 40 c1 2b f4 bd b1 a2 21 c0
       0.020427193 2.4120998 -0.11922408 -2.525555
000190 d7 72 e9 bd e1 1c e3 be 4c f9 8f 3f 0a 1d a0 be
       -0.11398857 -0.4435797 1.1247954 -0.31272155
0001a0 2a 51 df 3e 66 cc 2e be db 9f a4 3f 37 da bc 3f
       0.4361661 -0.1707016 1.2861284 1.4754094
0001b0 00 19 18 3f 9c 4b 80 3f c3 2b 4a be 48 59 cc bf
       0.59413147 1.0023074 -0.19743256 -1.5964746
0001c0 0d 65 2b be 5e 7b f7 be 1f 0c df be 8c 02 be bd
       -0.16737767 -0.4833631 -0.43563935 -0.092778295
0001d0 b1 1d 48 3f ad fe b4 bf 1f 10 93 bf 6d 78 91 bf
       0.78170305 -1.4140221 -1.1489295 -1.1364876
0001e0 5d 29 4f c0 e3 4a 01 bf f5 04 55 40 5b 7d 66 bf
       -3.2368996 -0.50504893 3.3284276 -0.9003503
0001f0 3e 4c 90 be 35 f3 84 be 27 99 d1 bd c9 d2 04 40
       -0.28183168 -0.25966802 -0.102342896 2.0753653

st_path.4.bias f4 [2]
000000 86 4d 88 40 b8 24 17 bf
       4.2594633 -0.59040403

lt_path.0.bias f4 [128]
000000 21 36 7e be cd 1a 80 3e 0c 6a 4b 3f 2f da 00 3f
       -0.24825336 0.25020447 0.7945869 0.5033292
000010 be 28 b9 be 81 d2 e7 bd f0 1e 5b bf e7 5b 64 bf
       -0.36163896 -0.11319447 -0.8559408 -0.8920273
000020 84 54 3b bf d0 7d 05 bf 74 5f 12 3f 7b 7c 62 bf
       -0.73175836 -0.521451 0.571769 -0.8847119
000030 13 84 a5 be 35 84 b0 bd 95 3d 81 bf 9a b6 c8 3f
       -0.32327327 -0.086189665 -1.0096918 1.5680726
000040 24 9d 5f be d8 2f a7 be 3b 81 91 3e 09 4d ea bd
       -0.21837288 -0.3265369 0.28418908 -0.114404745
000050 83 a8 a0 3e 00 d4 26 3e d5 0b fd bd ea 96 22 bf
       0.31378564 0.16291809 -0.123557724 -0.63511527
000060 c4 5a 86 be ef e1 5b 3f 98 bd 1e be 08 ff 97 bf
       -0.26241124 0.8589162 -0.15502012 -1.1874704
000070 00 e3 78 3d 51 aa 10 3e e1 ee 49 3d ea f5 8c be
       0.06076336 0.1412747 0.04930008 -0.27531368
000080 7e 5c 33 3d 1e d3 69 be 5d d7 5d 3c e2 03 ac bd
       0.04378938 -0.22834441 0.013540116 -0.08399178
000090 d3 95 a5 3e 57 d3 63 be 0a 4f d7 3d 76 ba c8 3d
       0.3234087 -0.22248589 0.105131224 0.098011896
0000a0 0c b6 1a 3f 60 9c c7 be 99 1a 05 bf 8a cd 7a bf
       0.6043403 -0.38986492 -0.5199371 -0.9796988
0000b0 fa 51 f1 3e d3 a8 a0 be eb 67 0e 3f 80 f4 a0 3e
       0.47132856 -0.31378803 0.55627316 0.3143654
0000c0 ae ee 0e bf c0 46 61 be 2d e7 0f bc ec 8b 7d bd
       -0.55832946 -0.21999645 -0.008783144 -0.061901018
0000d0 1d 03 6c be 86 83 1a be 24 66 ba bc ad 8b 0a 3f
       -0.23048063 -0.15089235 -0.022753783 0.5411938
0000e0 5f 17 ec 3d 88 24 c4 3d ed 1c 95 3c db 7a 56 3d
       0.11527895 0.0957728 0.01820227 0.052363258
0000f0 0a 5a 4e be 6f 4e 10 3c 65 00 21 3d 0b aa 08 be
       -0.20151535 0.0088077625 0.039307017 -0.13346116
000100 21 22 53 3e f1 ae dc be 7f 42 bf bd cd 13 43 be
       0.20618488 -0.4310222 -0.09338855 -0.19050522
000110 2f c8 7d be 58 7d bf 3f 21 cf 00 3e 32 03 c0 bd
       -0.24783395 1.4960127 0.12579013 -0.093756095
000120 96 3b b7 bd 85 db 74 bd 42 a1 7a bf db 79 10 bf
       -0.08946912 -0.059779663 -0.9790231 -0.56435937
000130 39 e6 29 ba fb 04 f8 bd b3 dc c3 3e 53 76 16 3f
       -0.0006481144 -0.12110325 0.38254318 0.587743
000140 8c 29 43 3d 68 00 4d 3f b6 2b 2e be 63 43 b6 3f
       0.047647044 0.80078745 -0.17008862 1.4239315
000150 42 92 1f 3e 30 f4 27 3f b6 d6 fd be 34 dd c0 3e
       0.15583137 0.65606976 -0.49577874 0.37668765
000160 4b fb 45 be 6d 70 97 bf 91 7b 77 be f8 3f e6 3e
       -0.19334142 -1.1831185 -0.2416823 0.4497068
000170 ab 19 9e be 1f d2 79 bf 5e 34 ea bd f5 ac 6a bf
       -0.30878958 -0.97586244 -0.114357695 -0.9167016
000180 cc 1e fb be c0 2a f4 bf ce 3f 2b 3e fd 3b 8f be
       -0.49046934 -1.9075546 0.16723558 -0.27975455
000190 2f 5d d4 3e 44 c6 3e be a0 e0 f6 3e 1a c4 3d be
       0.41477343 -0.1863032 0.4821825 -0.18531838
0001a0 81 59 63 be 7b 7e 27 bf 4b d0 3d 3f 30 ce 66 3e
       -0.22202112 -0.6542737 0.74145955 0.22539592
0001b0 3e 59 6d bd a8 99 af 3e d3 cd 2f bf 1b 24 9e 3c
       -0.057946436 0.34296918 -0.6867344 0.019304326
0001c0 9b 11 d2 3e 19 41 ac bc ab e4 d3 be 21 10 5c 3e
       0.41029057 -0.021027135 -0.41385397 0.21490528
0001d0 61 24 3c 3f 2a 20 16 3f 0f b1 16 bf fe 76 2d be
       0.7349301 0.5864283 -0.5886392 -0.16939923
0001e0 2d d8 2f be 55 6f cb 3d 4e e4 8c bf b1 1b a3 3e
       -0.17172308 0.09933344 -1.1007173 0.31857064
0001f0 a3 93 02 3e d9 fa 34 bf f3 5e 03 3f 34 9a 94 bf
       0.12751631 -0.70695263 0.51316756 -1.1609559

lt_path.2.bias f4 [128]
000000 4d 83 c9 bc d3 da eb bd b1 6a 8e bd 70 7a 02 bf
       -0.024598742 -0.11516347 -0.069539435 -0.50968075
000010 33 d4 9b be c7 2e 3e be b5 27 19 be 84 94 28 be
       -0.30435333 -0.18572532 -0.14956553 -0.16462904
000020 f7 04 01 bd b4 fc 66 bd 9e 5d 16 b9 63 31 3e bd
       -0.031498875 -0.05639334 -0.0001433999 -0.046433818
000030 b8 77 3c be af 94 6d be d9 7a 1d bf 88 a3 c8 bd
       -0.18405044 -0.2320125 -0.61515576 -0.09796816
000040 15 18 ce bd 9b f5 13 bd a9 a6 2a 3f bc 64 ff bd
       -0.10063187 -0.0361229 0.66660553 -0.124703854
000050 07 0c 19 c0 ac 64 8c bd b5 d0 e9 3b 78 9b 5b be
       -2.391359 -0.06855139 0.0071354755 -0.21446025
000060 0f 2f ce be 71 99 3f be 69 d7 e2 bd 19 c3 d4 bd
       -0.40270278 -0.18710877 -0.110762425 -0.103887744
000070 28 28 08 be 35 ec 31 bd 09 92 95 bc 90 17 97 bd
       -0.13296568 -0.043438155 -0.018258112 -0.07377541
000080 39 12 52 3f 6a ec c9 bd 88 14 fc bc fa c0 1a be
       0.82059056 -0.098595455 -0.030771509 -0.15112677
000090 e4 b6 80 3f 6b 60 ec bd 68 23 fb bd f4 09 62 be
       1.0055814 -0.11541828 -0.122626126 -0.2207411
0000a0 43 9a 36 be e5 d2 9d 3f a2 bf 32 bd 67 8d 51 bd
       -0.17832284 1.2329985 -0.043639787 -0.051160242
0000b0 10 c1 37 3f 98 31 07 be 4d 55 65 3d 2f 84 33 3f
       0.71778965 -0.13202512 0.055989552 0.7012357
0000c0 58 9d c7 bc c9 e2 24 3f 65 32 4d 3f 7a f8 5e 3f
       -0.02436702 0.64408547 0.8015502 0.87097895
0000d0 79 15 60 bd 4d 13 8d bf 76 34 f7 bd 6e 53 48 3f
       -0.054707978 -1.1021515 -0.12070553 0.78252304
0000e0 58 e7 f5 bd c8 9c c5 3f 9a 62 96 bd 7f 95 24 be
       -0.12007016 1.5438471 -0.073430255 -0.16072653
0000f0 17 97 38 be 72 b9 74 be 5e 55 9b bc c1 dc a8 bd
       -0.18026386 -0.23898867 -0.018961605 -0.082452305
000100 35 ee 90 bf 22 e8 86 3c 35 0d 7d be 8e 08 0d be
       -1.1322695 0.016468111 -0.2471207 -0.13772795
000110 32 31 7e be ad a8 90 bd 26 a4 b6 bd 97 5a bc be
       -0.24823454 -0.07063422 -0.089180276 -0.36787865
000120 4f 26 b2 bd 3f 46 98 bd 94 7a f6 bd a8 40 87 be
       -0.08698713 -0.074352734 -0.12035099 -0.26416516
000130 8b 1a db bd d2 38 15 3f 93 e6 23 3f c3 5f 5a bf
       -0.10698422 0.58289826 0.64023703 -0.8530237
000140 92 ec da bf f4 c8 c3 bd 63 2f 3d bd 2e 3c 39 bf
       -1.7103446 -0.09559813 -0.04618777 -0.7235745
000150 2f 36 d0 bd 86 2b 0b be d3 7d 35 bd 46 23 fe 3e
       -0.10166585 -0.13590822 -0.04430945 0.49636286
000160 4e b0 7b 3f 9e 82 0d be ff 26 d9 bd c5 5f 0e be
       0.98315895 -0.13819358 -0.10603141 -0.1390372
000170 35 b4 c7 bc 3e 96 3c 3f 27 43 30 be d3 aa a4 bf
       -0.024377922 0.7366675 -0.17213117 -1.2864631
000180 3e 8c 28 bd bd c3 b8 bd bd 40 22 be e6 3c 4b bd
       -0.04114937 -0.09021709 -0.15845008 -0.049618624
000190 b9 80 fa be 80 e9 d7 bd a0 37 0f bd 34 69 48 be
       -0.48926333 -0.105425835 -0.034965158 -0.19571382
0001a0 62 d7 02 be ed 4c 3f 3f 99 88 01 be 99 a4 2b 3f
       -0.12777475 0.74726754 -0.12649764 0.6704803
0001b0 cf c2 7e 3c 86 a0 90 bc b4 98 55 be a9 41 e3 bd
       0.015549376 -0.017654669 -0.20859033 -0.11096508
0001c0 a5 e7 65 be 4e d7 1f be 56 b8 59 bd 29 72 e7 be
       -0.22451647 -0.15609476 -0.053154312 -0.45204285
0001d0 c2 40 6c bd 63 f6 ac be 12 96 29 bc c4 b0 f9 be
       -0.057678945 -0.33781728 -0.010350721 -0.48767674
0001e0 f0 f4 48 be 25 23 cb bd f0 e4 51 3f 39 f7 f4 bd
       -0.19624686 -0.09918813 0.81989956 -0.119612165
0001f0 4a 39 64 bd 04 5a 54 be 3c 8e 9b 3e 6d 07 ea 3f
       -0.055718698 -0.20737463 0.30381954 1.8283516

lt_path.4.bias f4 [2]
000000 25 f9 1e 40 b5 c2 81 be
       2.4839566 -0.25343862

combined_path.0.bias f4 [64]
000000 4a ae 4d bf 2e 69 6f be 21 d4 81 c0 50 ae 8c bf
       -0.8034407 -0.23379967 -4.0571446 -1.0990696
000010 ae 28 e2 be 64 7b d9 bc 14 22 9d be 02 86 d1 be
       -0.4417166 -0.026548095 -0.30690062 -0.40922552
000020 ba 59 06 be 74 a2 42 bf 86 8e cb bd 18 bc 34 bf
       -0.13120165 -0.76029134 -0.099392936 -0.7059951
000030 44 58 f8 be 73 80 8c bc 82 92 85 be 64 2a c0 ba
       -0.4850484 -0.017151093 -0.2608834 -0.0014661071
000040 f1 bc 99 bd e8 33 8f 3f fa ef e1 be bd 88 97 be
       -0.07506741 1.1187716 -0.441284 -0.2959651
000050 1b 1c 34 bf 40 ce 72 bf 65 31 01 be 79 03 f3 be
       -0.70355386 -0.9484596 -0.12616499 -0.47463587
000060 f0 0c 43 bd e1 4c 58 3f cd 41 59 bf 7c 69 2b be
       -0.04761976 0.8449231 -0.8486603 -0.16739458
000070 0d 16 0b 3f 9f 7d 9b bf 44 73 d2 bf 2e 40 e9 be
       0.5433052 -1.2147712 -1.6441426 -0.45556778
000080 c0 c6 d0 be aa b8 90 bc 81 75 4c bf 51 17 1d bf
       -0.40776634 -0.01766618 -0.79866797 -0.61363703
000090 75 3c 31 bf 5e 71 1a bf 00 aa 85 bf 8d df eb bc
       -0.69232875 -0.60329235 -1.0442505 -0.02879312
0000a0 63 02 0c bf 04 42 38 be 6b 5f ca bb 05 a5 83 be
       -0.5469114 -0.17993933 -0.0061759255 -0.25711837
0000b0 4f 18 3f bf ee 00 3b be 5f e4 70 be 51 8a d3 bd
       -0.74646467 -0.18262073 -0.23524617 -0.10329116
0000c0 2c a7 f0 bf c8 4c 5b bb f8 33 80 be 42 19 e3 be
       -1.8801017 -0.0033462513 -0.2503965 -0.44355208
0000d0 8a ff b7 bd 44 9f c8 be a4 14 02 bf fd ec a2 3b
       -0.08984287 -0.3918401 -0.50812745 0.004972099
0000e0 34 38 14 3f ff 50 68 ba f9 a6 07 be 58 cd db be
       0.5789826 -0.0008862167 -0.13247289 -0.42930102
0000f0 ad 2f ae be 48 45 31 bd a8 37 ca be 53 0e 85 3f
       -0.3402075 -0.043278962 -0.39495587 1.0394996

combined_path.2.bias f4 [32]
000000 36 3b 44 be 1a 7a 1e be 34 4d bd 3b 8c a8 0f 3d
       -0.19163212 -0.15476266 0.0057770256 0.03507285
000010 36 17 04 be 1e 62 93 be a2 23 7a 3d 99 e5 06 bf
       -0.1289948 -0.28785795 0.06106914 -0.5269409
000020 e9 d2 5d 3d 8a 29 d4 3a 95 fb 65 3d 7f 5d 1d 3f
       0.054156218 0.0016186696 0.05614813 0.6147079
000030 56 cf b7 3d 4d 1a e9 3e 1d 00 c7 bd 17 68 96 bd
       0.08975093 0.45527878 -0.097168185 -0.07344072
000040 1b 90 b1 3d 63 8d 45 be 7c f8 ba 3d 17 1c 90 3a
       0.08670064 -0.19292216 0.09129426 0.00109947
000050 78 c5 d7 bd ed 1a 9f bd 59 d3 0e be 8e 7f 01 3f
       -0.10535711 -0.077688076 -0.1394781 0.5058526
000060 68 10 f7 bd 58 f0 1d 3e 7f b5 17 40 06 92 e2 bd
       -0.12063676 0.15423715 2.3704526 -0.11063008
000070 88 81 0e 3d e3 90 fb bc da d1 46 3d 8a b0 b9 bd
       0.0347915 -0.030708736 0.048539974 -0.09066875

combined_path.4.bias f4 [2]
000000 82 d9 9d 3f 08 29 81 bc
       1.2332003 -0.015766636

onnx::MatMul_190 f4 [25, 128]
000000 c7 32 c0 3f 47 ff d1 3f b7 41 53 3f 5f 5c 3d 3e
       1.5015496 1.640603 0.8252215 0.18492268
000010 07 d1 28 40 03 de cc 3d 33 12 da 3f b3 b0 98 3f
       2.637758 0.10003283 1.7036804 1.1928924
000020 72 25 85 40 29 51 b4 3f ab 3e fa be 4f 16 7d 3f
       4.160821 1.4087268 -0.48875937 0.98862165
000030 40 e1 e8 3f b7 7c 07 40 c5 6e 84 bf 91 3e 59 3f
       1.8193741 2.116987 -1.0346304 0.84861094
000040 aa 90 65 3f b6 55 65 3f 43 a2 0a c0 f9 f5 15 3f
       0.89673865 0.8958391 -2.1661537 0.5857845
000050 90 ed b0 3f 70 50 80 c0 6d c4 8e 3f 38 af ba 3d
       1.3822498 -4.009819 1.1153694 0.091154516
000060 1c 62 88 40 e8 d6 d3 3f 63 9c 77 40 6c bc 76 3f
       4.2619762 1.6549959 3.86892 0.9638126
000070 b1 00 27 40 c5 3f e0 3f a5 bc 1a 40 42 0d 2a 3f
       2.6094172 1.7519461 2.417764 0.6642648
000080 ea 32 12 40 b8 9d 9f 3f d2 a2 d2 3c 71 40 a4 3f
       2.2843575 1.2470007 0.025712404 1.2832166
000090 0e ae 19 3f 14 ad 8b bf b7 51 d4 3f 94 79 10 3e
       0.6003121 -1.0912194 1.6587437 0.14108878
0000a0 53 cd b5 3f b0 35 1e 40 a7 f3 b1 3f e6 cf e5 bf
       1.4203285 2.4720268 1.3902482 -1.795407
0000b0 bf 65 7c 3f 15 e4 e4 3f f9 c9 a4 3f a4 8b df 3f
       0.9859275 1.7882105 1.2874137 1.746449
0000c0 2f c4 70 c0 49 9e 4d c0 9d e3 45 40 d6 76 40 40
       -3.761974 -3.212786 3.0920174 3.0072532
0000d0 12 07 21 c0 d8 91 cd 3d fd d8 c7 be 79 cc 6b be
       -2.5160565 0.10037583 -0.39032736 -0.23027219
0000e0 0b 92 44 40 b9 29 fe 3f d8 9e 59 3f 98 f8 ce 3f
       3.0714138 1.9856483 0.85008 1.6169615
0000f0 00 0c 3b 3f b3 29 ad 3f d5 e8 ba 3f 13 b7 aa 3f
       0.73065186 1.352835 1.4602305 1.333712
000100 85 cb 22 3f 19 1a 13 c0 b2 83 22 3f ae 18 e5 bf
       0.63591796 -2.2984679 0.634822 -1.7898157
000110 46 21 a7 3f e6 2e 92 40 33 23 17 40 ac 54 21 40
       1.3057029 4.568225 2.3615234 2.520793
000120 5b 9b 1c bf 15 7a 05 3f 83 0e a5 3f 29 e2 99 be
       -0.61174554 0.5213941 1.2895054 -0.3005536
000130 e9 8c c0 3f 9b 1a 0d 40 75 dd 84 c0 77 7a 4c bf
       1.5043002 2.2047489 -4.1520333 -0.79874367
000140 e0 d9 4e 40 20 94 2e 40 30 f6 07 3f 7f 9e 6e c0
       3.232048 2.7277908 0.5311003 -3.7284238
000150 9e 3f 8a 3e 3e 2b 76 40 2d 9a 1b 40 b7 a0 4f 40
       0.2700166 3.8463893 2.4312851 3.2441843
000160 02 a7 a1 3f 1b 0a 0b 40 53 5b 46 3f ae 6e 13 40
       1.2629092 2.1724918 0.774831 2.3036304
000170 84 8a 84 c0 6c b2 34 40 e4 ff 48 40 af fe 27 40
       -4.1419086 2.82339 3.1406183 2.6249197
000180 57 4a 24 40 3a f6 88 3f 88 83 cc 3f 7a b0 97 3f
       2.5670373 1.0700142 1.597764 1.1850731
000190 f3 8a fd 3f 18 95 e6 3f 37 fb a1 3e 39 ca 07 40
       1.9808029 1.801425 0.31636974 2.1217177
0001a0 04 f6 09 40 19 ec 4f 3f 45 0a ec 3c 7d f4 d7 3c
       2.1556406 0.8121963 0.02881349 0.026361698
0001b0 8a 90 ca 3f 86 cd 44 3f 3b a5 05 40 92 9a 8a 40
       1.582536 0.76876104 2.0882099 4.3313684
0001c0 7b 48 b5 3e c7 62 1b 40 9c fb 86 3e e3 36 5f 40
       0.3540686 2.427904 0.26363838 3.487725
0001d0 5f a3 02 40 3c 29 8c 3f 0a ea 82 bf 79 3c 8b c0
       2.0412214 1.0950084 -1.0227673 -4.351132
0001e0 a5 c8 cf 3e c8 a4 99 3f 40 8a 7b 40 44 6c 9a bf
       0.40582767 1.2003412 3.930313 -1.206429
0001f0 55 05 67 c0 21 6c 33 40 9e 49 40 40 d3 80 ca be
       -3.6097004 2.8034747 3.0044932 -0.3955141
000200 1d 58 ed 3f 4e 36 19 40 64 6a 6c 3f 26 32 38 bd
       1.8542515 2.3939395 0.9234984 -0.0449697
000210 66 7f c1 3f 69 8d a7 3e 13 24 d4 3f 6d e4 b6 3f
       1.5117004 0.32725075 1.6573509 1.428846
000220 84 d2 46 40 2c f8 e5 3f 0e 58 97 be 5e 9e 83 3f
       3.1065989 1.7966361 -0.29559368 1.0282705
000230 7f 5f e6 3f 2e 6e dd bf 43 d9 d0 be 92 3f 61 3f
       1.7997893 -1.7299249 -0.40790758 0.87987626
000240 a5 04 f0 3e 1d 8a a9 3f 94 20 a7 bf 70 a0 04 3d
       0.46878543 1.3245274 -1.3056817 0.032379568
000250 33 13 13 40 02 a4 9a bf 26 e9 c4 3f f6 cc 17 bf
       2.2980468 -1.2081301 1.5383651 -0.5929712
000260 5c 90 8e 40 70 68 a5 3f 1b e3 44 40 49 75 ba 3f
       4.455122 1.2922497 3.0763614 1.4567043
000270 9c a4 31 40 95 f7 e5 3f 65 a0 fa 3f 41 80 06 40
       2.775672 1.7966181 1.9580199 2.101578
000280 1e 9d f7 3f cb f1 eb 3f 93 f6 95 3d d7 9d 31 3e
       1.9344823 1.8433164 0.07322421 0.17345367
000290 a7 f9 c0 3e 8b 74 07 bf ca 38 32 40 5c 27 02 bd
       0.3769047 -0.52912205 2.7847161 -0.031775817
0002a0 63 da df 3f 8b 07 08 40 0b eb 98 3f c3 df 96 bf
       1.7488521 2.1254604 1.194673 -1.1787037
0002b0 a8 ab 96 3f cc 47 e6 3f da be a8 3f 0e 05 13 40
       1.1771135 1.7990661 1.3183243 2.2971835
0002c0 0a 26 08 c0 ad 1d c1 bf 82 fd 2a 40 ea 92 3b 40
       -2.1273217 -1.5087181 2.671723 2.930842
0002d0 e0 22 56 bf a1 9e 85 3d a0 48 73 3f a3 c6 5f 3e
       -0.83646965 0.06524397 0.9503269 0.21853118
0002e0 ed 54 35 40 f1 42 c5 3f 51 1a 50 40 04 db 94 3f
       2.8333085 1.5411054 3.2516062 1.1629338
0002f0 e5 21 a9 3e d1 95 4f 3f 4d ed 64 3f de 20 7b 3f
       0.33033672 0.81087977 0.8942459 0.98097026
000300 74 ec 94 3d 06 f5 87 bf c0 09 43 3f cb 92 80 bf
       0.07271662 -1.062165 0.7618675 -1.0044798
000310 3f 3e ba 3f 7f 01 85 40 5a 1f a8 be 1c 4d 88 40
       1.4550246 4.1564326 -0.3283642 4.259413
000320 ab be cb be ce d3 19 3f d5 3f c4 3f 83 25 15 bf
       -0.39793906 0.60088813 1.533198 -0.58260363
000330 f9 c8 b9 3f d4 91 dd 3f dd 94 38 c0 8f 4a a6 be
       1.4514457 1.7310128 -2.884086 -0.3247876
000340 28 f7 93 3f 5e 6e 15 40 b1 30 11 3f 35 72 18 c0
       1.1559801 2.3348613 0.5671492 -2.3819706
000350 18 89 64 3f 79 49 74 40 03 9b 5b 40 1b df 33 40
       0.8927169 3.8169844 3.4313362 2.8104923
000360 69 0b e1 bd 8d 37 2c 40 ab f6 a5 3f 8a 0b 9b 3f
       -0.109885044 2.6908906 1.2965902 1.2112896
000370 65 1c 59 c0 2d bf 6f 40 2b ff fc 3f 0b 07 2b 40
       -3.392358 3.7460434 1.9765371 2.6723049
000380 5f 40 f2 3f 04 68 69 3f 28 9a e0 3f a0 d2 f5 3e
       1.8925894 0.9117434 1.7547045 0.48012257
000390 09 ad e4 3f ec 56 8d 3f 85 dc 1f 3f a0 4c 0a 40
       1.7865306 1.1042151 0.6244586 2.1609268
0003a0 09 81 ae 3f 98 cb 63 3f 4f b4 52 3c 4b 51 b0 3f
       1.3633128 0.88982534 0.012860372 1.3774809
0003b0 e8 14 76 3f 35 d8 75 3f cb 4c 3c 40 40 0d 18 c0
       0.9612565 0.9603303 2.942187 -2.3758087
0003c0 d4 21 0e bf c9 37 38 3f 96 f0 8d 3e fd 58 85 3f
       -0.5552037 0.7196012 0.27722615 1.0417782
0003d0 bc ae 02 40 f2 ac a2 3f 7d 4e 88 3a 75 4e 50 c0
       2.041915 1.2709029 0.0010399368 -3.2547886
0003e0 a6 97 ba 3e 3e 97 97 3f 68 9a 3b 40 1b 5c 7d bf
       0.36443824 1.184303 2.9312992 -0.98968667
0003f0 c8 b4 f0 bf b0 d7 dc 3f e4 ff 03 40 34 f6 01 bf
       -1.880517 1.7253323 2.0624933 -0.507663

onnx::MatMul_191 f4 [128, 128]
000000 18 20 e5 bd 0a 99 0b c0 97 3f 3d 40 a2 3f 3f bd
       -0.11187762 -2.1812158 2.9570062 -0.046691544
000010 1f 8a 97 be 17 ba 87 be ea 0d e8 3c c7 96 12 be
       -0.29597566 -0.26509163 0.028326947 -0.1431533
000020 dc f4 50 be bb 5b a7 bf a9 3c 30 c0 34 18 b6 bd
       -0.20405906 -1.3074869 -2.7537024 -0.08891335
000030 82 99 e7 3e c2 a8 a6 bc 2e 10 23 bf 1c 14 1a 3f
       0.45234305 -0.020344142 -0.63696563 0.60186934
000040 9f 48 74 3b ef cf 88 bf 40 ee a7 bf 7a b3 96 be
       0.003727473 -1.0688456 -1.3119583 -0.29433805
000050 84 d3 be bf 93 32 57 bf 8d 13 e3 3f f1 d5 0a bf
       -1.49083 -0.84061545 1.7740341 -0.542327
000060 5a d7 70 bf 20 16 8b 3f 99 72 8c bd 6a 56 6c bf
       -0.940786 1.0866127 -0.06857795 -0.9231936
000070 94 76 27 c0 fe 9a 02 bd d7 5b f2 3e 1a 3c 1f be
       -2.6166124 -0.031886093 0.47335693 -0.1555027
000080 21 04 ff 3e 46 01 00 c0 5a c8 a3 bf 8a aa ab 3e
       0.49807838 -2.0000777 -1.2795517 0.33528548
000090 c5 05 89 3f 76 79 96 3f ab e5 66 3f 84 67 84 bd
       1.0704886 1.1755817 0.90194196 -0.064650565
0000a0 66 2e 24 bf 77 eb 07 bf a5 82 90 3d 15 99 79 3f
       -0.641333 -0.53093666 0.070561685 0.9749921
0000b0 6f 1e 10 40 b4 a6 2b be 06 25 b6 be 4e d0 e6 bc
       2.2518575 -0.16762811 -0.35575122 -0.0281755
0000c0 53 c8 d5 bc 66 71 c5 bb 50 8e 68 3f 67 19 70 be
       -0.026096499 -0.006025481 0.9084215 -0.2344719
0000d0 3c 04 44 3e 10 5a 18 3f dd 5d 69 3f 09 f4 0f 3d
       0.1914224 0.59512424 0.9115885 0.03514484
0000e0 10 da cc 3e c3 a4 a7 bc 10 b9 f3 be 5a cd 01 be
       0.40010118 -0.020464307 -0.4760213 -0.12675992
0000f0 2f 1f 42 3f f2 62 a0 bf 82 9d c0 3f 94 98 26 be
       0.7582883 -1.2530196 1.5048068 -0.16269141
000100 ed 2f 4c 3f 2b 2f 11 bf 10 63 d4 3d 78 71 89 3f
       0.7976063 -0.567126 0.10370457 1.0737753
000110 d7 87 85 3e 99 b8 7b be 7d d8 94 3e 6b bb 29 be
       0.260802 -0.24582137 0.29071417 -0.165754
000120 ca 40 cb bd 77 64 9e 3f 5e c0 6b 3f b2 7a 13 be
       -0.09924467 1.237441 0.92090404 -0.14402273
000130 f5 8d 21 3e 97 25 e8 bf d2 87 31 3f f3 d0 c9 3f
       0.15776809 -1.8136472 0.6934787 1.5766891
000140 ca 6f fe bd 55 c6 0d 3f 76 6a c3 3e 1c b2 61 bf
       -0.12423666 0.55380756 0.3816716 -0.881624
000150 17 59 b6 3e 82 b7 14 3f 4c b2 28 3e 6a fd e8 3e
       0.35614845 0.5809251 0.16474265 0.4550584
000160 67 c3 62 bf 3f b1 59 3f 9c a0 f4 3e 45 7b a4 3f
       -0.8857941 0.8503608 0.47778785 1.2850119
000170 da 24 6f bc 88 27 34 3f 9f f7 14 3f 61 4b 45 3f
       -0.014596188 0.7037282 0.5819034 0.77068144
000180 9d 44 7d bf 26 03 19 3f 9b 87 67 bc 7a 1a 63 3f
       -0.9893282 0.5977043 -0.014131452 0.88712275
000190 e9 d8 77 bf 35 d4 9d 3d fd 72 85 3f ed ba 23 be
       -0.96815354 0.07706491 1.0425717 -0.15989275
0001a0 cd 43 3c 3f a7 d4 ac bd 8d 7a 98 3f 57 06 2b 3f
       0.73540956 -0.08438998 1.19124 0.6680655
0001b0 f6 65 8d bf be 7c 8a bf 83 9e 60 bd 2b e9 03 be
       -1.1046741 -1.0819318 -0.05483867 -0.12881915
0001c0 2f 8b 92 bc f3 2c 08 bd af c0 fa 3e 4d a9 e1 bd
       -0.017888634 -0.033245992 0.4897513 -0.1101862
0001d0 b7 fc 92 bf a9 d0 ef 3e d3 76 aa be 1d 34 28 3f
       -1.1483372 0.46838883 -0.3329378 0.6570452
0001e0 19 9f c0 bf 27 62 d4 3e 46 76 0a 3f 95 f5 ad 3f
       -1.5048553 0.41481134 0.5408672 1.3590571
0001f0 ec 82 95 be b8 99 89 bd 47 e5 90 bf b7 65 5b 3f
       -0.29201448 -0.06718773 -1.131997 0.8570208
000200 18 0c 8b bc bd 54 01 c0 d8 93 56 bf 9b 50 8e bf
       -0.01697354 -2.020797 -0.8381934 -1.1118349
000210 01 cf 46 bf 06 eb 6a 3f 46 d6 72 bd 19 1f 02 bc
       -0.7765961 0.9176487 -0.05928638 -0.007941985
000220 98 6a b7 bd 56 9c 33 bf 2d 27 35 3f 58 02 0d be
       -0.08955878 -0.70160425 0.707629 -0.13770425
000230 cd 32 04 3d 7f 5e 50 3b 3c 5b 04 be dd d1 84 3f
       0.03227501 0.0031794605 -0.12925428 1.0376545
000240 43 ea 92 bc 50 bc 7b bf ae db 22 c0 8e ce 39 bb
       -0.01793397 -0.9833422 -2.5446582 -0.0028351876
000250 a2 4e 73 bf 94 8e 37 bf 5b b4 e3 bf b9 40 2a bf
       -0.9504186 -0.7170193 -1.7789415 -0.6650501
000260 9b 9a ef bf 89 0f ce bf 25 8d 2d bd 17 07 0c 3c
       -1.8719057 -1.6098491 -0.042370934 0.008546612
000270 ed fa 02 bf a9 45 66 3e 3b de 83 bf f4 3d 8a bc
       -0.5116413 0.2248751 -1.0302194 -0.016875245
000280 a0 bd c1 3f da e3 c2 be 4a 42 aa 3d d8 a9 69 bf
       1.5135994 -0.38064462 0.08313425 -0.91274786
000290 44 37 97 be de c6 9f bf 50 72 55 3f 4f 3d 3f bd
       -0.29534352 -1.2482564 0.8337755 -0.046689328
0002a0 6b 25 17 bf c7 fd 6b c0 75 16 f1 be 0a 2c 6e c0
       -0.5904147 -3.6873643 -0.47087446 -3.721438
0002b0 80 bc e5 bf 07 f5 2e be 1e ec c7 bd 2e 9e 7f bf
       -1.7948151 -0.17085658 -0.09761833 -0.9985074
0002c0 bf df b0 3e 00 28 a4 3c 97 9e 62 3e f7 41 d7 bf
       0.34545705 0.020038605 0.2213081 -1.6817006
0002d0 1a 7c 26 bf ca 1f 48 3f 09 8e a9 3f 48 82 1e 3f
       -0.65033114 0.78173506 1.3246471 0.61917543
0002e0 25 4e 4f c0 c7 be d1 3d e9 8c fe 3f b1 db 0a 3c
       -3.2391446 0.10241466 1.9886752 0.00847523
0002f0 82 1a 7d 3f a7 d1 f7 3e b0 12 13 c0 b4 33 10 3e
       0.9886857 0.4840214 -2.2980156 0.14082223
000300 2a d7 e6 3f 67 6a af be e6 15 a2 3f 70 53 ab 3f
       1.8034413 -0.34260866 1.2662933 1.3384838
000310 64 0c 76 3f 6e 8e b4 bd 63 fc c4 3f fc 4a b0 bf
       0.96112657 -0.08816229 1.5389522 -1.3772883
000320 a4 72 8b 3d e5 9b 01 c0 5b b2 0b c0 78 47 50 bf
       0.06808975 -2.02514 -2.182761 -0.8135905
000330 84 33 5d 3f ed c6 4e c0 e7 cf b0 3f ef 16 09 3f
       0.8640673 -3.2308915 1.3813447 0.5355062
000340 3b 98 9e bd e4 d4 12 3f 4c 09 a4 3e 1a ca 76 3f
       -0.077438794 0.57356095 0.32038343 0.9640213
000350 a7 c0 c8 bd 87 b5 0f 3f 70 14 df bf 59 7f 87 3f
       -0.098023705 0.56136364 -1.7428112 1.0585738
000360 ce 92 e0 bf a9 a0 81 3e 59 9b 9e 3f 95 37 03 3f
       -1.7544801 0.25317886 1.2391158 0.51256686
000370 6c 62 11 3c 51 0f ac 3f 5d 51 2b c0 a6 e7 36 bf
       0.008873563 1.3442174 -2.676841 -0.7144722
000380 5a fa 9e bf 6e c7 b6 bf 8e af f0 bd 0f ec a3 bf
       -1.2420151 -1.4279611 -0.117522344 -1.2806414
000390 31 20 c6 bf dc bf cb bf f5 a0 32 c0 0f 4f af 3e
       -1.5478574 -1.5917926 -2.791074 0.34240004
0003a0 26 fa 62 3e 0a 5a 4c 3d 8d b0 91 3f 69 da ff 3e
       0.22165737 0.049890555 1.1382004 0.4997132
0003b0 12 c0 cd bf 3a ca 83 3f 86 4f d5 3c 78 45 68 3f
       -1.607424 1.029609 0.026038896 0.90731
0003c0 eb 9f 24 bf 26 f2 f2 be 67 c6 0e c0 33 75 62 bd
       -0.64306515 -0.4745037 -2.2308595 -0.05528755
0003d0 04 b2 0a c0 38 04 a8 3f be 1d ae be f0 d8 79 3e
       -2.1671152 1.3126287 -0.34007066 0.24399161
0003e0 39 ce 31 c0 b8 bd a3 bf 76 fc 72 bf 5f 50 a6 3e
       -2.7782118 -1.2792273 -0.94916475 0.32483193
0003f0 a9 8f 82 bf 81 c5 44 bd c4 91 c3 3d 30 35 81 bf
       -1.0200092 -0.048039917 0.09549287 -1.0094357

onnx::MatMul_192 f4 [128, 2]
000000 9e 7a 87 bd 18 f2 55 3c 3e ef f8 3f 0f f5 98 3e
       -0.06615184 0.013058208 1.9448011 0.29874465
000010 81 67 4e bf 19 de 0f 3f 97 22 45 3f ad f0 40 3f
       -0.80626684 0.5619827 0.77005905 0.7536724
000020 ed d6 cf bf 70 b5 88 3f a6 5b 05 c0 c0 7c b7 3e
       -1.6237465 1.068037 -2.0837188 0.35837364
000030 67 68 fa be 4d a5 25 bf c9 b3 5a bc c0 31 a9 bd
       -0.48907778 -0.64705354 -0.013348528 -0.08261442
000040 ef 26 91 bc ce 9e 60 3d 95 1b 03 be be 20 e7 be
       -0.01771876 0.054838948 -0.1280349 -0.45142168
000050 45 30 dc 3f 90 14 92 3e de a9 bb bc 27 3b a4 bd
       1.7202231 0.28531313 -0.022908147 -0.08019095
000060 7e 16 49 c0 8e f9 07 bf da f2 c4 3b 3a 01 1e bc
       -3.1419978 -0.53115165 0.0060103955 -0.009643847
000070 44 80 0b bd 99 54 87 bd 12 d1 83 3f ed a8 dd 3d
       -0.03405787 -0.066079326 1.0298178 0.10823236
000080 e1 43 02 bc 56 5f 76 3d fc 5a 82 3f 72 b4 4a 3e
       -0.007950754 0.060149513 1.0184016 0.19795397
000090 0f 7f 6b bf b1 0c 22 be 84 d9 f8 3c 75 a7 dc bd
       -0.9199075 -0.15825154 0.030377157 -0.107741274
0000a0 41 bd 74 bf 37 ee 34 bf b6 58 9f 3e 04 9d 22 3f
       -0.9560128 -0.70675987 0.3112237 0.63520837
0000b0 38 15 04 bf 25 78 ec 3e a5 00 f4 3f 5c a3 bf be
       -0.5159488 0.46185413 1.9062697 -0.3742932
0000c0 c3 3a 01 bf 69 bc ab 3e 27 21 8f bf 84 1c da bd
       -0.5048029 0.33542183 -1.1181992 -0.1064997
0000d0 92 3a e6 3b 0d 86 59 3c 5b 2c 7a 3f e6 05 23 bf
       0.007026025 0.013276589 0.9772393 -0.63680875
0000e0 6a 5a 61 be cf 0f 1b 3f ae 02 95 3b 9c 17 af bd
       -0.22007146 0.60570997 0.0045474386 -0.08549425
0000f0 24 53 da 3e e9 ae 8a 3f 5c 4e 8e bf eb d1 e6 be
       0.42641556 1.0834628 -1.1117663 -0.4508203
000100 42 0a 9c 3e 80 c4 6c bf 1e e2 74 bf f7 99 b7 3d
       0.30476576 -0.92487335 -0.9565753 0.08964913
000110 03 60 6a bb ff 5a 19 be 55 37 03 bf dc c4 a9 3d
       -0.0035762794 -0.14976119 -0.51256305 0.08289501
000120 da a6 1a 40 90 52 b4 be d2 43 b1 bf 87 cf 61 3e
       2.4164338 -0.3521924 -1.3848822 0.22051822
000130 99 86 16 40 d9 d9 8f 3e 0e a6 1e bd 11 b6 82 bd
       2.3519652 0.28095892 -0.03873258 -0.06382383
000140 ed 6c 08 bf e6 ac 53 3f f0 91 1a 3d b7 8d 0c 3f
       -0.5329121 0.826857 0.037736833 0.5490374
000150 56 9c 1f 40 bc ed 53 bf 5b f2 7e bf 8e d6 60 bd
       2.493917 -0.8278463 -0.99588555 -0.054892115
000160 db de a3 3f 61 34 85 bf 8f aa 8b bc 7c 26 50 3d
       1.2802385 -1.040661 -0.017049102 0.05081795
000170 38 d8 e8 3c 19 6e 99 3b 6e 16 80 bf 42 d3 40 be
       0.028423414 0.004682314 -1.0006845 -0.18830588
000180 b9 4c 8b bc 40 ae 3b 3d 4a c1 3f bc 2b f4 a4 3b
       -0.017004358 0.045820475 -0.011703799 0.00503399
000190 fe 8d c2 3e d1 6d 21 bf 60 7a 94 3f 72 a0 69 bf
       0.37998956 -0.6305819 1.1599846 -0.91260445
0001a0 3c 91 cd be b1 c3 51 3e c2 87 32 3f c5 71 22 be
       -0.40149868 0.20484807 0.697384 -0.15863712
0001b0 2c fc b3 3f 5a 24 9c be 88 4a 0c 40 d2 5c 3e bf
       1.4061332 -0.30496484 2.192049 -0.7436038
0001c0 54 a8 dc 3f e2 59 70 bf 83 8c 13 bd 17 be 2b 3c
       1.723887 -0.9388715 -0.036022674 0.010482333
0001d0 d4 ab 17 bf 0a 82 be bf 98 5f f3 bb f0 17 02 3e
       -0.59246564 -1.4883435 -0.007427167 0.12704444
0001e0 ee 7e 17 bf 09 d9 a6 bf 9e 2a 75 bf 22 12 15 3f
       -0.59178054 -1.3034984 -0.95768154 0.58230793
0001f0 a0 8a 21 3f af 12 a6 3e f4 81 19 3f 6f e2 9a be
       0.6310215 0.3243613 0.5996392 -0.3025088
000200 6f 5e 9f 3f 3f 44 b6 bd e8 ee 09 3e 99 8f 07 bf
       1.2450694 -0.08899736 0.13470042 -0.5295349
000210 50 1d 33 3f ef 65 79 3e ce 59 01 3f c5 02 89 bf
       0.699666 0.24355291 0.50527656 -1.070397
000220 b4 d4 b9 bf 90 6f a9 be 2e 46 b2 bc a9 1f 85 3d
       -1.4518037 -0.33092928 -0.02176198 0.06500179
000230 58 1e 52 3f ab b7 56 be d0 21 01 bf 3f 24 9f 3f
       0.8207755 -0.20968501 -0.5044222 1.2432936
000240 74 56 1a 3c e1 22 c1 3c d2 f2 81 3f 14 d3 78 bd
       0.009420026 0.023576202 1.0152228 -0.060748175
000250 60 8a 00 bf 35 05 0c 3f f8 a0 c1 3b 44 e3 e8 3e
       -0.50211143 0.54695445 0.0059090815 0.4548589
000260 77 1f a4 3f 9c 04 42 bf 0a 77 9e bf c3 8d 0e bf
       1.2822102 -0.75788283 -1.2380078 -0.5568506
000270 86 64 b8 3e 9f f9 d8 be 2c 20 8c 3f fb 66 d5 3e
       0.36014193 -0.42377946 1.0947318 0.4168013
000280 b2 cf b9 3b 27 48 2f 3d 3e 5f 03 40 05 d0 40 3f
       0.005670511 0.04279342 2.0526881 0.7531741
000290 60 31 ca 3f 60 fa a5 3f d9 74 a0 bf 05 0a d5 3e
       1.5796318 1.2967033 -1.2535659 0.41609207
0002a0 6f d6 0d 40 0d f1 cb bf 69 d1 ea 3f 41 77 56 3d
       2.216213 -1.5932938 1.8345157 0.052359823
0002b0 71 aa 1f bf bd 32 9e bc 87 44 ae 3f c0 1b 24 bf
       -0.6236945 -0.019311303 1.3614663 -0.64104843
0002c0 08 af 5c bf 5a 04 81 3e e1 85 a3 bf e1 3f 23 bf
       -0.86204576 0.25198632 -1.2775232 -0.63769346
0002d0 b7 c6 1c 3f e5 55 2b bf 74 f3 00 40 61 38 04 3f
       0.61240715 -0.6692794 2.0148592 0.5164853
0002e0 28 30 84 39 24 44 0e 3c d2 af 32 3e 83 a9 e2 3e
       0.0002521288 0.008683238 0.17449883 0.44269952
0002f0 2a d8 a5 3e 62 ce a9 3d 2b 5d c5 be bd 3a a5 bf
       0.32391483 0.082913175 -0.38547644 -1.290855
000300 f1 bf db bf c2 b9 58 bd 13 78 96 3f fc 0a 75 bf
       -1.7167951 -0.052911527 1.1755394 -0.95719886
000310 3b cf 2c 3a ae df 3e 3d da d8 35 bf 4f 43 6f bf
       0.0006592159 0.046600036 -0.71034014 -0.9346208
000320 4d 56 9e be ed ae f6 bd de 37 c6 be 43 72 fa be
       -0.30925217 -0.12045083 -0.38714498 -0.489153
000330 6d a6 70 3f 22 a6 b0 3e d1 da 93 3f 46 41 db bd
       0.94003946 0.3450175 1.1551152 -0.10705809
000340 c0 de a4 3f 67 83 90 3d 1d 02 04 3d 5a 69 b5 bd
       1.2880478 0.07056313 0.032228578 -0.08857985
000350 b5 0a d3 bf a9 98 4f be c0 03 53 3f 2e a6 14 bf
       -1.6487643 -0.20273079 0.824276 -0.5806607
000360 ad cc 5c be f8 ef 9b 3f c9 53 06 bf 98 0d ca 3e
       -0.21562453 1.2182608 -0.52471596 0.39463496
000370 63 52 97 3a c5 d9 90 bd 7c 8a 08 bf 2d 38 ca 3e
       0.0011544939 -0.07072786 -0.5333631 0.39495984
000380 9b 80 6d bf e7 6a 4e 3d c7 bd f5 3e 1a 8a bb bd
       -0.9277436 0.05039492 0.4799635 -0.091572
000390 c4 63 7b be c9 f3 00 be 8f 3a db ba 72 1d c1 3d
       -0.24549776 -0.12592997 -0.0016725826 0.094294444
0003a0 31 ef 5b bf 4a 58 2f 3f f6 e1 1e bf c2 cb cd bf
       -0.8591185 0.68494093 -0.6206354 -1.6077807
0003b0 81 8e 1c 3e 20 9b 02 c0 39 59 98 be d0 a5 af be
       0.15288736 -2.040718 -0.2975557 -0.34306192
0003c0 36 2e a4 bf 54 df 08 be d4 c3 0c 40 83 1f 10 3f
       -1.2826602 -0.13366443 2.1994524 0.56298083
0003d0 7a c1 be 3f 9d 27 8e be 89 89 8a 3f 60 25 6e be
       1.4902794 -0.27764598 1.0823222 -0.23256445
0003e0 0c 1b ba 3f 38 97 bf bf 1b 73 33 3c 22 99 02 bb
       1.4539504 -1.4968023 0.010952736 -0.00199277
0003f0 6c 72 b2 3f 7e 2f 3a 3f 01 f6 1e bf 03 b9 1f 3e
       1.3941169 0.7272872 -0.6209412 0.1559792

onnx::MatMul_193 f4 [25, 128]
000000 82 22 ea be c2 95 a9 bf 58 6d bd bf 7f 59 27 3e
       -0.45729452 -1.3248827 -1.4798994 0.16342734
000010 73 30 35 c0 06 cd ff be 79 12 16 c0 45 19 c3 3e
       -2.831082 -0.49961108 -2.3448775 0.38105217
000020 34 f4 a4 3d 23 54 97 bf f0 03 04 c0 99 b0 28 3f
       0.080543905 -1.1822551 -2.0627403 0.65894467
000030 80 92 63 c0 e1 ce 01 c0 f5 6a f7 3e 7c 77 95 be
       -3.5558167 -2.028252 0.4832379 -0.29192722
000040 18 dd 40 c0 6a 8e 5e bf 92 af d3 bf 39 60 05 c0
       -3.0134945 -0.86936057 -1.6537955 -2.083998
000050 a4 96 a0 bf 47 62 c9 bf 41 ce 3c bf 3c 3b 4d 3f
       -1.2545972 -1.5733117 -0.7375222 0.8016851
000060 ed 57 1e c0 5c 1b 9c bf a1 45 17 c0 1f f9 18 3e
       -2.4741166 -1.219585 -2.3636248 0.14938782
000070 a8 2f bd bf cf a5 27 bf ea 17 9e bf 55 c8 40 c0
       -1.4780169 -0.6548738 -1.2351048 -3.0122273
000080 c5 c5 67 3f 96 8d af 40 66 33 8f bf dd f9 87 bf
       0.9053615 5.4860334 -1.118756 -1.0623127
000090 63 10 ef bf 87 53 4b c0 92 aa 24 c0 e1 6c 89 bf
       -1.8676876 -3.176973 -2.5729108 -1.0736352
0000a0 2f b5 82 c0 c8 9d 0b c0 d7 67 35 c0 1e d3 37 3e
       -4.084617 -2.1815052 -2.834463 0.17951629
0000b0 19 6e c2 bf 18 0d a3 3f 37 61 fe bf 35 3d 74 bf
       -1.5189849 1.2738371 -1.9873418 -0.95405895
0000c0 26 d8 43 c0 de e4 f4 bf e1 72 9b 3e 83 fc 5a be
       -3.0600677 -1.9132345 0.30361083 -0.21385388
0000d0 54 0c 81 be 67 b8 16 c0 97 91 81 3e e5 cf 00 c0
       -0.25204718 -2.355005 0.2530639 -2.0126889
0000e0 25 9d bb bf c3 83 09 c0 e5 d1 4e bf df 72 37 bf
       -1.4657332 -2.148667 -0.80789024 -0.71659654
0000f0 b5 02 26 be 28 64 98 bf 2a 09 d3 3e 54 3c 47 c0
       -0.1621197 -1.1905565 0.4121793 -3.1130571
000100 91 6c 17 c0 bb aa cd be fb 6d 78 be a2 34 53 c0
       -2.3660014 -0.4016932 -0.24260704 -3.3000875
000110 eb 6f a9 bf 3a 0a 0a bf 0a 1a a8 bf 16 88 85 be
       -1.323728 -0.53921854 -1.3132946 -0.26080388
000120 9b 4b b3 bf 83 68 8d 3f 13 5e c8 3d 7d 66 81 3e
       -1.4007448 1.104752 0.09783568 0.25273505
000130 93 fe 0f c0 34 66 21 c0 94 00 f5 3d b3 f6 ac be
       -2.249913 -2.521863 0.11963001 -0.33781967
000140 9e 51 37 bf 3c 38 40 bf 25 53 01 c0 5d 64 68 c0
       -0.7160891 -0.75085807 -2.0206997 -3.6311257
000150 fb 05 f0 bf f7 6c ed 3f 22 90 58 c0 e1 cd f6 bf
       -1.8751825 1.8548878 -3.3837972 -1.9281579
000160 8e 61 34 3e 1d 37 4d c0 09 03 2e c0 97 64 f6 bf
       0.17615339 -3.2064888 -2.7189353 -1.9249448
000170 1f e1 37 c0 d8 3d aa 3f 52 b8 1d c0 6b 92 1e c0
       -2.8731153 1.3300123 -2.464375 -2.4776866
000180 46 9c ec bd 91 a9 80 3e cb 9b 99 bf 68 f9 f4 bd
       -0.11553244 0.2512937 -1.2000669 -0.11961633
000190 1f f6 87 bf ed d3 4a c0 35 4e a8 bf 0d bf 8b bf
       -1.0621985 -3.169185 -1.3148867 -1.0917679
0001a0 5c 05 33 c0 bf 80 13 c0 92 29 0c c0 5f 7e 66 3f
       -2.797202 -2.304733 -2.1900373 0.90036577
0001b0 e9 ee c8 bf da 9e c8 bf ec 7e 6a c0 79 7c 87 bf
       -1.569791 -1.5673478 -3.6639967 -1.0584861
0001c0 56 ff bf bf db 77 64 3f 34 6e f2 3c 8f 19 6e bf
       -1.4999797 0.89245385 0.029593565 -0.9300775
0001d0 ca 42 e1 bf e3 e2 42 bf 73 d9 18 3e ad e4 34 c0
       -1.7598507 -0.7612745 0.149267 -2.8264573
0001e0 df 4a f4 bf c7 d4 d7 bf 57 06 b8 c0 7d ae dd be
       -1.9085349 -1.686181 -5.750774 -0.43297186
0001f0 94 30 36 c0 50 f9 0a be 28 ff ee bf 86 e7 c3 c0
       -2.846715 -0.13571668 -1.8671618 -6.122012
000200 6c 70 01 bf b6 8f a9 bf c3 b2 f5 bf e4 f7 3c c0
       -0.5056217 -1.3246982 -1.9195179 -2.95263
000210 36 b2 08 c0 1f 77 ce be c3 ad 1f c0 49 ec f3 be
       -2.1358771 -0.40325257 -2.4949806 -0.4764121
000220 61 63 c0 3e 0e 95 6a bf 11 8f 01 c0 c4 da 28 3e
       0.3757582 -0.9163369 -2.024357 0.16489702
000230 b7 c9 31 c0 7d 50 bf bf ed e6 c9 3d d1 51 96 bf
       -2.7779367 -1.4946438 0.09858499 -1.1743718
000240 fa 8d 43 c0 c6 8e 63 bf 83 21 00 c0 6c 96 b6 bf
       -3.0555406 -0.8888973 -2.0020454 -1.4264655
000250 59 ea d4 bf d6 82 81 bf 24 ba 1e bf f6 69 13 3e
       -1.6634017 -1.0118053 -0.6200278 0.1439589
000260 3b c8 07 c0 2d 34 7d bf 57 93 08 c0 74 f8 d1 3e
       -2.121596 -0.9890774 -2.133993 0.41009867
000270 b7 14 53 bf 11 ef e2 be a3 1e 66 bf ae 76 00 c0
       -0.82453483 -0.44323018 -0.898905 -2.0072436
000280 da c4 c2 c0 f5 85 92 3f 1a b7 0b bf f0 af 25 c0
       -6.0865297 1.144713 -0.54576266 -2.5888634
000290 fe 59 2e 3e 77 37 64 c0 29 e6 04 c0 b9 a0 97 bf
       0.17026517 -3.5658853 -2.0765479 -1.1845924
0002a0 61 5e d7 3e 9e 92 b7 bf 20 96 0f c0 05 2b 01 3f
       0.42064193 -1.4341619 -2.243538 0.5045627
0002b0 65 52 c5 bf 42 7e c0 be ee ee 07 c0 8b cb 16 c0
       -1.541577 -0.37596327 -2.123958 -2.3561733
0002c0 29 98 25 c0 7a d7 85 bf c1 39 80 be 8f bb b6 be
       -2.587412 -1.0456383 -0.25044063 -0.3568997
0002d0 d9 a6 e0 bf ec d4 f7 bf d4 eb b3 3f 58 ce 03 c0
       -1.7550918 -1.9361854 1.4056344 -2.0594692
0002e0 4f b3 06 bf a2 71 c2 bf 0e c4 3e bf 0e 9a ad bf
       -0.52617353 -1.5190928 -0.74517906 -1.3562639
0002f0 39 31 e4 be a3 aa 0f bf 0d 6e 4f bf c6 9b 4c c0
       -0.44568804 -0.56119746 -0.810273 -3.1970077
000300 f7 be cb bf f9 fb e2 be e1 e3 88 bf c4 9d 39 c0
       -1.5917653 -0.44332865 -1.0694543 -2.9002542
000310 1e f0 91 bf 2d 84 71 bf 33 b8 d6 bf 88 a0 db bd
       -1.1401403 -0.9434231 -1.6774963 -0.10723978
000320 f8 dc 44 40 b1 2a 77 3e c0 f5 c6 bf bf 6a 64 be
       3.0759869 0.24137379 -1.5543747 -0.22306345
000330 0e a7 9c bf c8 3b f0 bf 8f 01 48 c0 3d 66 f3 bf
       -1.2238481 -1.8768244 -3.1250951 -1.9015576
000340 ff 1e c9 bf 6b 91 b0 bf dd 79 8d bf 00 44 ce bf
       -1.5712584 -1.3794378 -1.1052815 -1.6114502
000350 24 06 ab bf ef 64 63 3e 28 c9 b9 c0 e5 c4 8c bf
       -1.3361249 0.22206472 -5.805805 -1.0997587
000360 4c 59 d7 3e 62 bb de bf da 40 40 c0 01 3a 1c 3e
       0.42060316 -1.7400935 -3.0039582 0.15256502
000370 2f 4a 16 c0 67 47 88 c0 8f 02 23 c0 67 28 3c c0
       -2.3482778 -4.258716 -2.5470312 -2.939966
000380 e1 b1 d0 be 83 67 34 3f 91 49 10 3f 4a e8 95 be
       -0.4076071 0.70470446 0.56362253 -0.29278785
000390 77 16 5d bf 73 bf 38 c0 d7 a2 90 bf 88 da 63 bf
       -0.86362404 -2.8866851 -1.1299695 -0.8900533
0003a0 8b bd 0d c0 84 69 fe bf b2 12 6b c0 1a 35 ef bf
       -2.2146938 -1.9875951 -3.673016 -1.868808
0003b0 54 14 81 bf cc 1c 92 bf 6a 27 3c c0 2a fb dd bf
       -1.0084329 -1.1415038 -2.9399056 -1.7342274
0003c0 5e 6a 2c bf 75 f2 63 be eb 39 7e 3d c8 bf 29 bf
       -0.67349803 -0.22260459 0.062066954 -0.6630826
0003d0 7a 24 aa bf 6c 4a 32 3f 01 a3 95 3d 9f 92 c0 3f
       -1.3292382 0.6964481 0.07306481 1.5044745
0003e0 8b 01 3c c0 e1 fd d7 be a2 44 4d 3f e6 9b 85 be
       -2.9375942 -0.42185882 0.8018285 -0.26095504
0003f0 8f 8b 89 bf 8a 9b 87 bf 4f 13 dc bf ce 40 30 c0
       -1.0745715 -1.0594342 -1.7193393 -2.7539554
